lab2/EEGNet.pth (torch_old, 69127 bytes, 27 tensors)

firstconv.0.weight f4 [16, 1, 1, 12]
000000 f7 34 09 3e 2c 93 5a 3e b6 02 d2 be 4b cb 15 be
       0.1339911 0.21345204 -0.41017693 -0.14628331
000010 2b db 59 3e f6 05 d2 bb 0d e2 88 3e b6 ac 46 be
       0.21275012 -0.006409402 0.26734963 -0.19401821
000020 70 6b 95 be 24 ff d3 3d 39 da 64 3d 57 69 c0 3b
       -0.2918353 0.103513986 0.055872176 0.0058719325
000030 5f 81 e7 3e 3c c6 a3 3e 36 45 88 be 5f 34 a1 be
       0.4521589 0.31987178 -0.26615304 -0.31485268
000040 79 4e 46 bd 51 41 ad 3d ad 15 21 be 63 f6 9a 3d
       -0.04841468 0.08459724 -0.15730925 0.07566526
000050 5f 95 02 be 99 5e 96 be cd 8d 24 3e 20 d0 32 3e
       -0.12752293 -0.29369047 0.16069718 0.17462206
000060 1d ef f9 bd e4 d8 30 be 14 04 8e 3e 6d ec 59 3d
       -0.1220381 -0.17270237 0.27737486 0.05320399
000070 a5 56 1e be 89 16 68 be 92 00 a3 3e d9 91 73 3d
       -0.1546274 -0.22664846 0.31836373 0.059465263
000080 99 b3 9f 3d 45 fd 51 be 33 19 02 be a9 87 5a 3e
       0.077979274 -0.20506771 -0.12704925 0.21340813
000090 d0 f9 4e be 7f 67 22 be 8a 27 b9 bd f3 bd 90 bd
       -0.20212483 -0.15859793 -0.090407446 -0.0706748
0000a0 73 07 2e be f2 e9 ee bc c7 a7 33 3d a9 be 02 3d
       -0.16995029 -0.029164288 0.043861177 0.03192011
0000b0 3f 32 21 bd 97 f5 c8 bd 2f 1d 3a be 51 c1 b8 3e
       -0.03935456 -0.098124675 -0.18175195 0.3608499
0000c0 1f 17 a8 3e 11 d4 0d be 67 8e 8c bd bf 6d 69 be
       0.3283014 -0.13850428 -0.068630986 -0.22795771
0000d0 a7 e8 a7 bc 8a d7 21 bd 42 b2 1c 3e 86 d0 d2 bd
       -0.02049668 -0.039512195 0.15302375 -0.10293679
0000e0 7c d6 10 3e b2 d3 97 be 5f ae 94 bb bb 5a 98 3e
       0.1414432 -0.29653698 -0.004537388 0.29756722
0000f0 ec 6a 44 be 7d 21 35 3e 99 c3 0b 3e 8e f3 8a 3e
       -0.19181412 0.17688556 0.13648833 0.27138942
000100 10 1a 6e be a3 eb 2b bd 70 d5 8a be b0 15 3a 3e
       -0.2325213 -0.041972768 -0.27115965 0.18172336
000110 b2 63 9b bd a2 cc 17 be 8d b8 a9 3c 5c 4f 70 3e
       -0.07587375 -0.14824155 0.020717883 0.23467773
000120 30 76 17 3e 55 61 b4 bd b8 c6 21 3c d7 57 61 be
       0.14791179 -0.08807627 0.009874038 -0.22006164
000130 f3 6e 29 3e 6f 63 55 3e 77 ac 81 be ab 92 53 3e
       0.1654623 0.20838712 -0.25326893 0.20661418
000140 53 81 2a 3e ee b1 12 3d 00 52 45 be 2f 1c 47 be
       0.16650896 0.03581422 -0.19269562 -0.19444345
000150 5e f8 2a 3d 4a d3 78 3e 87 58 71 be 29 d1 64 bc
       0.041740768 0.2429935 -0.23568927 -0.013965883
000160 71 4b 35 be f0 16 45 3e 60 14 a1 3d 58 80 46 bd
       -0.1770456 0.19247031 0.07865214 -0.048462242
000170 96 63 13 be 76 d1 53 be b3 0e 5b 3d 25 81 57 3e
       -0.14393458 -0.20685372 0.053480815 0.21045358
000180 54 d5 e7 3e 5d d7 bb be f9 42 4f bc 91 ea e4 3c
       0.45279944 -0.36687747 -0.012650245 0.027943881
000190 b3 0e 56 bd ba 1d 7f 3e 3d 6f d2 bd 1c 6d 8a be
       -0.052260112 0.24913684 -0.10275123 -0.2703637
0001a0 64 4b 98 3d a4 08 db 3e 21 bc f9 bd 9d 42 90 be
       0.074362546 0.4278003 -0.12194086 -0.28175822
0001b0 0c ad 67 bc d1 e8 d1 3d ec 12 b2 3e ac f2 05 3b
       -0.014140379 0.10249484 0.3478006 0.0020438833
0001c0 31 88 89 be 23 1a b8 3d 9c d6 5a 3d 48 72 62 3d
       -0.26861718 0.0898936 0.053427324 0.05528477
0001d0 44 f7 a4 3d 6c b9 72 be 92 71 c4 be cc d4 60 3e
       0.08054975 -0.23703545 -0.38367897 0.21956176
0001e0 e9 2f 9a be e3 d4 8b bd ce e1 af 3e cb 00 03 3d
       -0.30114678 -0.06827714 0.34351963 0.031983178
0001f0 87 72 a9 3d ef 81 39 be 64 29 87 3e 5a 12 8d be
       0.082737975 -0.18115972 0.26398766 -0.27553064
000200 1d cd 55 be 6b a5 f5 3e a4 8d 36 3d e8 b8 72 be
       -0.20879026 0.47977766 0.044568673 -0.23703349
000210 97 fc b7 3d 90 f7 67 be 97 8b 40 3b d4 c3 1f be
       0.089837246 -0.22653031 0.0029380077 -0.15602046
000220 0c 27 d3 3d d7 e0 52 3e f0 68 b7 be 0d 4c 88 be
       0.10310182 0.20593582 -0.35822248 -0.26620522
000230 66 aa c1 3e 52 a7 b7 3e 01 29 81 be 72 fc d8 3d
       0.37825316 0.35869843 -0.25226596 0.10595025
000240 7e 73 84 3e 29 fd 52 3d b5 1a 79 be 03 18 83 be
       0.25869364 0.051510964 -0.24326594 -0.25604257
000250 37 ed 8d 3e 06 ea 1c 3e 57 5f 95 be 00 c1 74 3e
       0.27720043 0.15323648 -0.291743 0.23901749
000260 44 3f 09 be 25 10 ab be c5 4d 62 3c eb c6 80 3e
       -0.1340304 -0.33410755 0.013812487 0.25151762
000270 57 6c 35 3e 4e e0 5e bd 4d d4 23 be f4 2f f2 3d
       0.1771711 -0.054413132 -0.15998955 0.118255526
000280 29 de 08 be b5 ce ec 3d be 7c 35 be a6 e3 78 3e
       -0.13365997 0.11562864 -0.17723367 0.24305591
000290 30 a1 84 be ba ec 8f bd ca 0b 90 be 97 8d ef 3e
       -0.25904226 -0.07027574 -0.28133994 0.46787712
0002a0 5f 6d a5 be 3c 63 fa bc 81 7b 63 3d ab a6 37 3e
       -0.32310006 -0.030564897 0.055537704 0.17934673
0002b0 15 84 cd bd e6 01 33 3e 60 3e d0 3d 3e 6f 66 3e
       -0.10034958 0.17481193 0.10168147 0.22503373
0002c0 ea 4f 99 be e4 d4 9e bd b0 2e 06 3d 22 f1 57 3c
       -0.29943782 -0.077554494 0.03275937 0.013180049
0002d0 35 96 0d 3d 7c b4 b9 bd 26 d1 8a 3d 39 2f 96 3e
       0.034567077 -0.09067628 0.06778173 0.29332903
0002e0 62 ac 4b be af 7b 0a bd 3d 07 83 bc fb 8a 05 3e
       -0.19889978 -0.03380936 -0.015994662 0.13041298
0002f0 f7 a2 1a be 47 73 a2 3e 96 1a 4b be b7 46 60 be
       -0.15101229 0.31728575 -0.1983436 -0.21901976

firstconv.0.bias f4 [16]
000000 1c 68 b7 3d cd 4f 3d be ed 0a a3 bd 2a 7a 48 3e
       0.08955404 -0.18487473 -0.07961068 0.19577852
000010 58 66 d4 bd fc ec f7 3e 9e 93 e3 3e 70 2d 07 3e
       -0.10371083 0.48422992 0.4444856 0.13200927
000020 18 23 ae be 1f 5b a4 be 66 20 20 3f b8 70 b2 bd
       -0.3401115 -0.3210077 0.62549436 -0.08712906
000030 7b 14 a9 be fc e6 cf 3e 8a 06 32 be 68 ed 99 be
       -0.33023438 0.40605915 -0.17385307 -0.3006394

firstconv.1.weight f4 [16, 16, 1, 25]
000000 bb a3 a2 bd eb c7 33 3d eb a6 bc 3c 02 8a 6e bd
       -0.07941385 0.04389183 0.023028811 -0.058237083
000010 82 17 ef bd e7 54 00 bc 22 e2 aa 3d 10 5e 77 3d
       -0.11674406 -0.007832742 0.08343913 0.06039244
000020 4f 8d 06 bd b0 cf 1d be 0b 6a 14 3d 5d 62 25 3d
       -0.032849606 -0.15411258 0.036233943 0.04037701
000030 48 0f cc 3a a8 f3 bb bc 83 37 62 bd 80 40 ba 3d
       0.0015568519 -0.022943333 -0.05522872 0.09094334
000040 d3 37 89 bd 33 01 0f be 6e b4 b5 bd b3 57 a9 3d
       -0.06700101 -0.13965301 -0.08872305 0.082686804
000050 84 b6 bb 3d 40 47 1d be d4 f8 51 be b7 4e c7 3c
       0.091656715 -0.15359211 -0.20505077 0.024329526
000060 ab 86 03 3e 01 97 77 bd 9c 71 40 bc 53 d4 4a bc
       0.1284434 -0.060446743 -0.011745837 -0.012379724
000070 c8 2c c1 bd ab 93 6e bd 98 7b ac bd 03 0f aa 3d
       -0.094323695 -0.058246296 -0.08422011 0.083036445
000080 af ea 67 bd d7 32 d1 bd ff 89 7f 3d f7 d1 0d 3d
       -0.056620296 -0.10214775 0.062387463 0.034624066
000090 58 a2 65 3d 48 08 2b bc 1f 59 86 3d 3b 30 60 3d
       0.056063026 -0.010438986 0.06559967 0.054733496
0000a0 dc 0f 1b 3d a1 2f 84 bd a8 4c 43 bc c9 8e 73 3d
       0.03785692 -0.06454397 -0.011920132 0.059462342
0000b0 47 db 55 3d 42 df 58 3d 3c b0 56 bd 7f 68 a1 bd
       0.052211072 0.05294729 -0.052414164 -0.07881259
0000c0 07 23 6b 3d 70 b0 80 3d 50 80 34 3e 98 95 09 3d
       0.05740645 0.06283653 0.17627072 0.03358993
0000d0 99 c1 9c bd 3c 02 6d 3a b2 38 02 3e 21 b5 ae 3d
       -0.07654113 0.00090411655 0.1271694 0.08530641
0000e0 09 08 3a bd f9 5f b0 bd c0 2d 61 bd f8 0d 30 3d
       -0.04541782 -0.08612055 -0.05497527 0.04298207
0000f0 80 e4 b3 3d d4 d1 0b be c9 e4 96 bd 4d e1 fc 3c
       0.08783817 -0.13654262 -0.07367856 0.03086915
000100 08 78 1f 3e 04 26 f6 bd 6a bf af bd c6 11 db 3d
       0.15573132 -0.1201897 -0.08581431 0.106967494
000110 c8 24 09 3e 97 e0 f3 3c b5 bb 57 be f5 f1 37 3d
       0.13392937 0.029770179 -0.21067698 0.044908483
000120 9a 6f 67 3e 3a 7f 3c 3c 85 70 f3 bd e8 d8 70 3e
       0.22601166 0.011504943 -0.11886696 0.23520243
000130 5e 89 13 3e 5d 54 27 3e 7b 98 fe 3d f5 a1 9e 3d
       0.1440787 0.16340776 0.12431427 0.077457346
000140 77 70 14 3e d8 6e 00 3e a7 a7 94 3d 77 77 f1 3d
       0.14496027 0.12542284 0.0725854 0.11790364
000150 30 05 c5 3d 11 59 dc 3d 1b 17 8a 3d 02 26 21 3e
       0.0962013 0.107591756 0.06742688 0.15737155
000160 97 53 a3 3e b5 fa a6 3e c6 d4 19 3e 46 3a 20 3e
       0.3189971 0.3261315 0.15022573 0.1564723
000170 ef 19 71 3e 21 20 5f 3e a3 6a 22 3e fd 66 18 3e
       0.23545049 0.217896 0.15860991 0.14883037
000180 b1 e9 1e 3e b6 03 67 3e 99 cd 56 3e 8b f6 c2 3d
       0.15518834 0.2256001 0.20976867 0.095196806
000190 e9 89 fc 3c 33 0e 51 3d 63 92 38 bc 5e 16 a6 bd
       0.03082748 0.051038932 -0.01126537 -0.08109735
0001a0 3e ad b8 bd 75 d5 57 bc 6d c7 81 3d ec fc 11 be
       -0.09017418 -0.013173451 0.063368656 -0.14256638
0001b0 84 fc dd bd f5 2a 85 bd 2a 4b 86 3d 10 8c 9b bc
       -0.10839179 -0.06502334 0.06557305 -0.018987685
0001c0 85 bb ea b9 05 7a 86 3d 30 36 90 3d a6 b6 11 be
       -0.0004477167 0.06566242 0.070415854 -0.14229831
0001d0 42 f1 a4 bd 5b 26 3f 3b 7b ee cf bc 12 23 e2 3c
       -0.08053829 0.0029167149 -0.025382271 0.027604613
0001e0 e8 4b 4f bd b5 83 9c 3c 9a 48 3c bd cd 7f 53 bd
       -0.0506095 0.019105772 -0.045967676 -0.051635552
0001f0 76 3b d2 3a 0e fc 8f bb 80 1a db bd 77 98 1e be
       0.0016039449 -0.004394061 -0.10698414 -0.15487848
000200 ec 6f 84 bd fd d7 87 bd 2d e0 72 bd 06 55 8d bc
       -0.0646666 -0.06632993 -0.059295822 -0.017252456
000210 e8 69 39 bd 4f 81 53 3c 9d 39 fc 3c 85 08 0d 3d
       -0.045267016 0.012909248 0.03078919 0.034431953
000220 5b d7 84 bd 56 be 22 be 73 f4 c0 3c 5d 7d c9 3c
       -0.06486388 -0.1589292 0.023554062 0.02459591
000230 1c 59 22 bd 31 49 8c bd 5d a9 f9 3c 99 b3 dd 3d
       -0.039635763 -0.06849898 0.030476267 0.10825271
000240 c4 42 07 be 0d 07 b8 bd c7 73 75 bd e5 74 a7 3d
       -0.13209063 -0.0898572 -0.059924867 0.08176593
000250 ef 89 42 bc 61 65 c4 bd d4 be c4 bd fa 52 2c bd
       -0.011873706 -0.09589649 -0.0960671 -0.04207132
000260 ad da d8 3d 08 63 32 3d a3 5e bd 3d be 66 15 3c
       0.10588584 0.043551475 0.09246566 0.009118734
000270 6b 54 90 3d ba 1b 2a bd ed 07 22 bd 6e 82 f1 3c
       0.070473514 -0.04153035 -0.03955834 0.029481139
000280 1b 5f d6 bc a2 89 9c 3c 15 22 08 3e d4 8f 50 3d
       -0.026168397 0.019108597 0.13294251 0.050918415
000290 d9 18 ea bd a1 60 47 bd f1 e4 31 3e 0e b8 f3 3c
       -0.114305206 -0.048676137 0.1737249 0.02975085
0002a0 9b 4f b1 bd 81 a2 37 bd e6 76 16 3e d3 dc ed 3d
       -0.08657762 -0.04483271 0.14693794 0.116143845
0002b0 60 45 d2 bd 78 b3 9d bd af cd ca 3d 43 e3 dc 3b
       -0.102671385 -0.077002466 0.09902512 0.006740959
0002c0 87 b9 5e 3d 1c 8b 8e bd 55 2c 13 bd 5b 2d d4 bd
       0.05437615 -0.06960127 -0.03593095 -0.10360213
0002d0 4e 5f 42 3d b1 a9 f1 3d 82 5e 9b 3c e6 d7 e7 bd
       0.04745417 0.11799944 0.018965963 -0.11320476
0002e0 78 ff 8f bc e3 9e 37 3d 50 7e 4d 3d da 3d 6f bd
       -0.017577872 0.04482926 0.05016929 -0.058408596
0002f0 92 8a df 3b fe a0 94 3d 8a e5 d9 3c 2c 7a 4e bd
       0.006821939 0.07257269 0.02659871 -0.05040948
000300 4f a0 83 bd 6c 1f 9f 3d 8b 67 8f 3d c3 dc 93 bc
       -0.06427061 0.07769665 0.07002171 -0.018049603
000310 38 75 17 be 8c db fc 3c ff fe 10 3d 69 22 69 3d
       -0.14790809 0.030866407 0.035399433 0.05691758
000320 75 6b ec bd 5b e5 69 bb b8 ac d4 3d 4d 07 41 bd
       -0.11543933 -0.0035689685 0.10384506 -0.047126103
000330 18 20 a4 bc aa 47 f5 bd 2f 9e 99 3c ca dd 5a 3d
       -0.020034835 -0.119765595 0.018752186 0.05343417
000340 b0 1d 09 3e 7f 57 78 bd de 67 32 be df 79 4a 3e
       0.13390231 -0.060630318 -0.17422435 0.19773053
000350 e7 25 3e 3e fd cb f3 bd 24 59 5c bd 5f 80 d9 3d
       0.18569146 -0.11904142 -0.05379595 0.10620188
000360 ce 3b 7c 3e 8a 89 1d be 3e 97 3a be 9c ae e5 3c
       0.24632189 -0.15384498 -0.18221757 0.028037362
000370 5f 1e 6f 3e e2 eb 1b 3d a0 eb 69 be ce 20 5a bd
       0.2335143 0.038066752 -0.2284379 -0.05325394
000380 da 0e 12 3e b9 6d 6c bc 4e dc e0 bd 5e 86 a7 bd
       0.14263478 -0.014430457 -0.1097952 -0.081799254
000390 6a cf bb bd 95 ec 8b bc 48 bc c8 3d df dd 97 3c
       -0.091704205 -0.017080585 0.09801537 0.018538414
0003a0 65 1c a2 39 f3 a2 58 bc dd 88 e8 3d f6 29 e7 3c
       0.00030920203 -0.013222444 0.113542296 0.02821825
0003b0 c5 55 5d bd 43 74 18 3d 8c 86 bc 3d 15 59 ba bb
       -0.054036874 0.03722025 0.0920535 -0.005686889
0003c0 34 b2 c1 bd c1 32 b4 3c 07 bd 9c 3d b1 69 6c 3d
       -0.09457818 0.021996858 0.076532416 0.057717983
0003d0 03 e7 bd 3c b4 2c 2e bd 9d db ed bc 5b f0 da 3d
       0.023181444 -0.0425231 -0.029035384 0.106903754
0003e0 c2 e5 ca 3b 5a 59 39 bd 1a 05 6d 3c 58 84 1f bd
       0.00619194 -0.045251228 0.014466548 -0.038944572
0003f0 ab ad d3 3d 68 17 a9 3d db 3a 00 3e 19 8f 7f bd
       0.10335859 0.082564175 0.12522452 -0.062392328

firstconv.1.bias f4 [16]
000000 94 29 f2 3c 22 d8 cf bc 34 ee b4 3c 32 d6 0e bd
       0.029560842 -0.025371615 0.02208624 -0.03487224
000010 77 84 3c 3c 79 20 5a 3d 6a 2b 2e bd 2d 29 4a bd
       0.011506191 0.053253625 -0.04252187 -0.049355675
000020 fb 6c f3 bc c1 af 57 3d d1 9b a2 3c 88 3b 1a 3d
       -0.029715052 0.052657846 0.01984969 0.03765443
000030 78 20 9f 3c ef c2 d2 3b 86 26 72 bb a6 f2 9f 3c
       0.019424662 0.0064319293 -0.0036949231 0.019524883

firstconv.2.weight f4 [16]
000000 d0 57 40 3f dd 56 7b 3e 03 d4 39 3e b2 06 ce 3e
       0.7513399 0.24544854 0.18147282 0.40239483
000010 a1 8a 54 3f 28 22 ab 3e 8d 39 11 3f 89 0c 4e 3f
       0.8302403 0.33424497 0.5672844 0.8048788
000020 25 cb 60 3e 71 37 97 3e ff 13 a8 3e 18 dc 29 3f
       0.21952493 0.29534486 0.32827756 0.6635146
000030 13 56 b6 3e 44 7e ad 3e 5d 71 74 3f 57 c1 c2 3e
       0.35612544 0.33885396 0.9548548 0.38038132

firstconv.2.bias f4 [16]
000000 52 62 72 be 9f b0 61 be 80 c5 e2 bd 53 b8 3d be
       -0.23670319 -0.22040032 -0.110728264 -0.18527345
000010 61 b6 24 3b 1e 46 bf bc 1f 4c 20 be 05 9d c6 be
       0.002513312 -0.023348864 -0.15654038 -0.3879167
000020 90 3a 45 3e 63 eb 65 bd 30 db a6 be 7a d9 19 be
       0.19260621 -0.056132685 -0.32589102 -0.15024367
000030 35 45 2d be 73 9b 9e be 72 15 67 be 8d fe 17 be
       -0.16920932 -0.30977973 -0.22566774 -0.14843197

firstconv.2.running_mean f4 [16]
000000 cf 57 a5 3e b0 76 1e bf 3e 04 a1 3e 35 75 ff bd
       0.32293555 -0.6189985 0.3144855 -0.12473527
000010 f5 32 30 3f ed f9 0f be fe f9 95 bf 31 2b 29 3e
       0.68827754 -0.14060183 -1.1716917 0.16520382
000020 48 25 2e 3f af c1 95 3e 83 5b a2 3f 2e 9c b0 bd
       0.68025637 0.2924933 1.2684177 -0.08623539
000030 24 7e 49 3e eb ca 32 3f 66 db 80 bd a2 46 40 bf
       0.19677025 0.6984088 -0.06291847 -0.7510778

firstconv.2.running_var f4 [16]
000000 14 68 54 43 1d 16 96 43 39 d1 3e 44 cf ca d3 43
       212.40656 300.17276 763.2691 423.58444
000010 bb f1 bb 43 c7 bd aa 43 11 32 a7 43 d6 45 26 44
       375.88852 341.48264 334.39114 665.0912
000020 1e ef 2f 44 82 f1 d4 43 92 4b a5 43 bb 8e 90 43
       703.7362 425.88678 330.5904 289.11508
000030 a0 fe b8 43 32 54 6e 43 86 67 90 43 19 7d 95 43
       369.98926 238.32889 288.80878 298.97733

depthwiseConv.0.weight f4 [16, 16, 1, 1]
000000 11 25 64 3e 5b a0 8e be 4e 1a 9a bd d2 27 98 bd
       0.22279765 -0.27856717 -0.075245485 -0.0742947
000010 da 44 86 be 4c e5 a5 be 3b f3 3e bd 63 46 ae 3d
       -0.26224405 -0.32401502 -0.04661868 0.08509519
000020 cf 3d 91 3e c3 78 d6 bd 56 7f 7f be 7a c0 0e be
       0.2836747 -0.10472252 -0.24950919 -0.13940611
000030 d8 6b 04 be 8a 35 9a 3e ac 74 ce 3e 96 2a 8f 3d
       -0.12931764 0.30118972 0.4032339 0.069905445
000040 a1 fe 6a be 4d 76 58 be 5b 65 8f 3e 29 95 7e be
       -0.22948696 -0.21138878 0.28007016 -0.24861588
000050 9f 05 17 be f7 a5 11 bd 87 c9 8b be 31 1b 2f 3e
       -0.14748238 -0.035558667 -0.2730219 0.17100216
000060 5e 0e a7 bd fb b0 c7 3d 81 05 14 be 37 f2 cf bd
       -0.08157037 0.09750553 -0.14455225 -0.10153621
000070 e1 06 7c be a2 43 7b bd 5e 48 f9 3d 07 f1 07 3e
       -0.24611999 -0.061343797 0.12172006 0.13275538
000080 91 0e 82 3d 2b 77 47 bd 8f 61 90 3e 7d f7 34 be
       0.063504346 -0.04869763 0.2819943 -0.17672534
000090 70 7a b0 be 4a a1 22 3d af 6e be 3d a3 ab 78 3e
       -0.34468412 0.0397046 0.09298455 0.24284224
0000a0 1e c9 20 3e be 8c cf 3d 2b cf 36 be dd 10 1e be
       0.1570172 0.10134266 -0.17852466 -0.1543612
0000b0 82 a7 b0 be 78 b8 c0 3a 78 9e 18 be da e8 e2 bd
       -0.34502798 0.0014703413 -0.14904201 -0.11079569
0000c0 47 a0 1b 3e ab b5 7a 3e 31 b3 61 be ee 88 ae bd
       0.1519786 0.24483363 -0.22041012 -0.08522211
0000d0 ee b7 84 bd 40 ec 80 be d8 0c 28 be 34 90 a5 3c
       -0.06480394 -0.25180244 -0.1641115 0.020210363
0000e0 1d c8 d3 be 62 b7 8e 3e 46 1d 23 3e e1 dd e2 bd
       -0.41363612 0.27874285 0.15929136 -0.11077476
0000f0 0b 34 32 be 27 5f e3 bc 1d 66 34 3e 4e 1d 80 be
       -0.17402665 -0.027755333 0.17617078 -0.25022358
000100 90 37 ef 3d f4 c4 8a 3d 2f 43 96 3e e0 a1 4c 3e
       0.116805196 0.06775847 0.29348132 0.19983625
000110 8e 0a ca bd 4d 4c c4 3d c2 e1 01 3e f9 52 d3 be
       -0.098652944 0.09584866 0.12683776 -0.4127424
000120 00 a2 c2 3e e5 1b cb 3d 7e 0c 7e 3e 58 37 70 3e
       0.3801422 0.0991743 0.24809453 0.23458612
000130 17 3f 10 3e b4 b1 cc be c9 af 0c be bb ed a3 3d
       0.14086567 -0.39979327 -0.13738932 0.08004328
000140 52 d6 79 be e2 44 fe bc 31 42 73 be 7c cb 05 be
       -0.24398163 -0.031038705 -0.23755719 -0.13065904
000150 dd a7 b3 3d 48 43 50 3c 8f 31 41 be cd 71 e5 bd
       0.08772252 0.012711354 -0.18866561 -0.112033464
000160 6d a7 0e 3e 2a e6 0c 3d 5c 72 66 be d7 cd 91 3a
       0.13931055 0.03439919 -0.22504562 0.0011123967
000170 d2 6d bc bd bd df 4d 3d ae f1 a8 3d 52 33 90 3d
       -0.09200634 0.0502622 0.08249222 0.070410386
000180 e5 dd 08 3e 59 df 25 3d 76 94 de 3c 35 2f 92 3e
       0.13365896 0.040496204 0.027170401 0.2855164
000190 65 07 0f 3c c7 8c 06 be 98 ac 88 3b a1 ef ff 3c
       0.00872979 -0.1313964 0.0041709654 0.031242194
0001a0 3d 66 87 3d b2 5f 2d be ff c6 02 be 29 1d 81 be
       0.06611297 -0.16931036 -0.12771223 -0.2521756
0001b0 c0 08 ff bc 6c 6e c3 3d 30 15 95 3e 60 6c 39 3e
       -0.031132102 0.09542546 0.29117727 0.18107748
0001c0 66 80 fa bd 1b 78 d9 bc 9c ab 87 be f5 36 d1 bc
       -0.12231521 -0.026546529 -0.26498115 -0.0255389
0001d0 1c 75 ce 3d 93 57 ca be d9 04 3e bc a1 6b 47 3e
       0.100809306 -0.3951994 -0.011597835 0.19474651
0001e0 ee 75 a0 bd 2c 43 74 3e 8b d9 92 be 5c d7 7f 3e
       -0.07834993 0.23853749 -0.28681597 0.24984497
0001f0 93 8e a4 bd 61 b7 fe bd 69 01 69 be 65 3a 5d 3e
       -0.080350064 -0.124373205 -0.22754444 0.21604307
000200 aa e2 c8 3d 74 e9 01 be d0 ef df be e8 cb 05 be
       0.09808858 -0.12686712 -0.4373765 -0.13066065
000210 a6 cd 07 bd 7c c3 11 bf a6 ab 45 3e 7d fc 8f 3d
       -0.033155106 -0.5693891 0.1930376 0.0703058
000220 8c 16 20 3e 8f 72 95 3a 61 27 13 be 0e 3e fb 3d
       0.15633601 0.0011401939 -0.1437049 0.12267695
000230 10 02 3c bd 12 08 88 3c 55 44 8b be 0e cb 35 be
       -0.045900404 0.01660541 -0.2720057 -0.1775324
000240 7e a5 be bd 2f 59 f3 bd 70 c2 da ba 65 96 c9 3e
       -0.09308909 -0.11882245 -0.0016690027 0.39372554
000250 9b b0 eb bc d4 c7 5f 3e 76 ff e3 bd 42 14 2d 3e
       -0.028770735 0.21853572 -0.1113271 0.16902259
000260 23 1c f4 bd 11 88 a0 3d e1 cb 35 be 46 77 21 bd
       -0.11919429 0.078384526 -0.17753555 -0.03942039
000270 33 96 88 3e b8 9a 3f be 5c 93 32 be 35 27 00 be
       0.26677093 -0.18711364 -0.17439026 -0.12514956
000280 48 ff c4 bd f2 4a 94 3e a5 c3 af 3d 8a d2 7f 3d
       -0.096190035 0.2896343 0.08582238 0.062456645
000290 a0 fe 89 be 83 8d 2f be 84 90 39 be 4d 5d b1 bd
       -0.26952076 -0.17143826 -0.18121535 -0.08660374
0002a0 f3 6c 2d 3e 55 50 26 3d 12 7a dc 3d c4 34 52 3e
       0.16936092 0.040603954 0.107654706 0.20527941
0002b0 13 92 2d be 95 4e 87 3e 7f 0b 80 bd f3 98 2d bd
       -0.16950254 0.2642714 -0.06252193 -0.042382192
0002c0 25 10 0e be 71 92 b6 bd 07 4c 90 be 5f a7 bb bd
       -0.13873346 -0.0891465 -0.28183004 -0.09162783
0002d0 0b 7c e2 bb 0f 70 05 3e 25 09 b3 3c 18 ac c0 3e
       -0.0069117597 0.13031028 0.021854946 0.37631297
0002e0 f0 9d 8d 3e 1a 6d 39 3e 8f 38 fa bd 9b 7f 83 be
       0.2765956 0.18108025 -0.12217819 -0.25683293
0002f0 e9 9c 72 3e 05 fe fa bc 8e 1d da be cb 8f 89 3e
       0.23692669 -0.030638704 -0.42600673 0.26867518
000300 b9 b7 19 3e 5c c2 11 3e d9 c0 6b 3e a8 2c 9a bd
       0.15011491 0.14234298 0.23022784 -0.07528049
000310 16 f7 9e be 96 9f 60 3e 77 0f 87 3d 1c dc 59 3e
       -0.31047887 0.21935877 0.065947466 0.21275371
000320 a4 4f f5 bd 93 dd 2d 3e 1e b7 b0 bd 92 5d 7c be
       -0.11978081 0.16979055 -0.08628677 -0.24645069
000330 95 a2 97 be 6c 4b 10 be 60 5a 70 3d 6c cb 43 3d
       -0.29616228 -0.14091271 0.05867994 0.04780142
000340 92 3c 73 be f1 b1 3d 3e b1 73 9e be 61 e2 a1 3e
       -0.23753574 0.1852491 -0.3094764 0.31618026
000350 38 0d 08 3d d9 71 19 3c c6 c2 d1 bd 25 24 c9 bd
       0.03321573 0.009365522 -0.10242228 -0.09821347
000360 0f f6 aa be 9c be 8f be 5c ba 6b 3e 2c 8c 69 3e
       -0.33390853 -0.2807511 0.23020309 0.22807378
000370 07 ee 1a be 01 a5 1c be af 4b ff bd 10 10 84 be
       -0.15129863 -0.15297319 -0.124656074 -0.25793505
000380 30 2a 36 bc 6b 3e d5 bc 75 63 26 3e 44 d4 0f 3e
       -0.011118457 -0.02603074 0.16248877 0.14045817
000390 66 2f 89 3d b9 63 0b 3e 56 2c b7 bd d9 73 d6 be
       0.06698494 0.1361226 -0.08944003 -0.4188526
0003a0 03 6a aa 3e f5 a8 98 be d6 82 0d 3e 70 fd 42 be
       0.33284006 -0.29816404 0.13819441 -0.19041991
0003b0 b5 4e 87 3e 7e bc 35 3e dd 6b 21 3e 55 2b 87 bd
       0.26427236 0.17747685 0.15763803 -0.06600062
0003c0 b7 fa 36 be 77 f8 61 3d 1d 63 2a be 8c 62 23 3e
       -0.17869078 0.055168595 -0.16639371 0.15955561
0003d0 79 b2 58 3e 79 ad 82 3d 5d a2 45 3d 73 8c b3 be
       0.21161832 0.063807435 0.048250545 -0.35068092
0003e0 e4 98 d0 3d 99 ab a4 3b 8b 41 fc 3d c7 89 22 3e
       0.101854116 0.005025339 0.12317189 0.1587287
0003f0 49 de 81 3e 79 23 84 bd a8 38 8d 3b ff ff 4d bc
       0.25364903 -0.06452078 0.0043097325 -0.012573241

depthwiseConv.0.bias f4 [16]
000000 4a c5 6f bd 58 d9 31 3c 0c b0 37 3d fc c3 97 3e
       -0.05853776 0.010855041 0.044845626 0.29641712
000010 ec f2 03 3e a0 7f e7 3c ec d4 a0 3e 51 e0 88 3c
       0.12885636 0.028259099 0.31412446 0.016708525
000020 d2 07 0d be 7c a7 95 be c1 1c 37 be 06 ea 10 3d
       -0.13772514 -0.29229343 -0.17882062 0.035379432
000030 33 bf 75 bc 9d f1 e0 3a 4c 84 10 be 4d 49 b1 3c
       -0.014999199 0.001716185 -0.14112967 0.021641398

depthwiseConv.1.weight f4 [16]
000000 1b 61 12 3f f8 37 15 3f 18 8e b5 3f 3a 34 9d 3f
       0.5717942 0.58288527 1.4183989 1.2281563
000010 62 6a 94 3e fb f7 b0 3f 34 8c b5 3f 73 f1 97 3f
       0.28987414 1.3825678 1.4183412 1.187056
000020 a2 85 fe 3f 84 e7 8b 3e 84 b3 d7 3f ed 2f c5 3f
       1.9884531 0.2732507 1.6851659 1.5405251
000030 c0 71 57 3f b2 e0 13 40 b7 92 05 3f 21 f7 3e 3f
       0.84157944 2.3105893 0.52176994 0.7459584

depthwiseConv.1.bias f4 [16]
000000 43 bc f7 be 4e 99 b8 bd 9d 72 2e bf 23 de c3 3e
       -0.4838582 -0.090136155 -0.68143636 0.38255414
000010 a2 71 06 3e 9b 30 3b bf 33 36 58 bf 6c e8 b9 be
       0.13129285 -0.7312104 -0.844577 -0.36310136
000020 a9 62 5d bf a9 82 61 bd 86 93 27 bf b4 dd 49 be
       -0.8647867 -0.055056248 -0.6545948 -0.1971348
000030 41 9a b5 bf 45 b2 98 bf 4e 37 b5 be e5 ad 6e be
       -1.41877 -1.1929404 -0.35393757 -0.23308523

depthwiseConv.1.running_mean f4 [16]
000000 48 60 a3 ba e0 62 94 3d 72 45 94 3d 97 5f 45 3e
       -0.0012464607 0.072454214 0.07239808 0.19274746
000010 a0 bb 3b 3e ba cf 40 3e c8 9c 90 3e 28 4b ae 3d
       0.18333292 0.18829241 0.28244615 0.08510429
000020 f7 40 07 bd 5a 4d 96 be 48 de 8d be 94 aa 9e 3d
       -0.03302094 -0.2935589 -0.2770865 0.07747379
000030 10 03 a0 bd b1 9b 37 bd ba c0 ca bd 1d 53 9e 3d
       -0.07813084 -0.044826213 -0.09900041 0.07730696

depthwiseConv.1.running_var f4 [16]
000000 00 ee f5 3d 69 52 c6 3c 31 5a 8c 3c 3b 71 a0 3c
       0.120082855 0.024209218 0.01713285 0.019585242
000010 2e a3 d6 3c 46 07 0a 3c 51 b3 56 3d be f3 be 3d
       0.026200857 0.008424586 0.052417103 0.09323834
000020 55 1f d0 3d f2 81 1b 3d 67 0b 44 3d 5c cd 2e 3e
       0.10162226 0.037965722 0.047862437 0.17070526
000030 51 7b 39 3d f7 3b 0c 3d f1 8d 4d 3d 32 71 92 3c
       0.04528362 0.034236874 0.050184194 0.017876241

depthwiseConv.3.weight f4 [32, 1, 2, 1]
000000 05 63 d3 3e b2 46 03 bf c3 2e c9 be 2b b5 14 3f
       0.41286483 -0.5127975 -0.3929349 0.5808894
000010 00 44 ea 3d fd ac cc bd 0f 66 19 be 45 70 7a bf
       0.11438751 -0.099939324 -0.14980339 -0.9782756
000020 c0 97 2a bf e3 13 4b be 85 fb 83 3e 45 03 7f be
       -0.666378 -0.19831805 0.25777832 -0.24903591
000030 e0 8d bc 3e 77 fb e2 be 94 41 9a be e0 08 66 be
       0.36826992 -0.44332477 -0.30128157 -0.22464323
000040 69 18 e0 be a6 fa e8 3e 36 5e 63 3d 6f 3f 9a be
       -0.43768623 0.4550373 0.05550977 -0.3012652
000050 2e ea 52 be b6 6f 1f 3f f6 41 75 be e0 d4 3f 3e
       -0.20597145 0.6227983 -0.23950943 0.18733549
000060 29 07 88 bd 57 37 e6 3e fe cf c0 be 92 d8 8d 3e
       -0.06641991 0.44964096 -0.37658685 0.27704293
000070 e1 6d 13 3f 3f 71 66 3e 6a d1 04 bf 1e 0c 48 bf
       0.57589537 0.22504137 -0.5188204 -0.7814349
000080 6a d2 2e bf 82 d0 31 be 55 89 14 3f d5 e6 a4 3e
       -0.68289816 -0.17364696 0.5802205 0.3220736
000090 a2 3d 5e 3e e2 9f 4e be 53 5c 42 be 92 76 2a 3f
       0.21703199 -0.20178178 -0.18980531 0.66587174
0000a0 5f 69 f2 be 41 89 c2 3e 75 29 04 3f 07 e8 0d 3f
       -0.47346017 0.3799534 0.5162576 0.5543217
0000b0 43 04 26 bf c9 9b 17 3f f7 6d ed 3e ae 13 44 3e
       -0.6485025 0.59222084 0.4637296 0.19148132
0000c0 7c 6f 45 be 7c b0 d0 3e bf d5 8a 3e 0a a5 8d be
       -0.19280809 0.40759647 0.271162 -0.27664977
0000d0 09 63 f5 be ea 02 41 3f 2e d8 e5 3e 76 18 d8 be
       -0.4792712 0.7539507 0.44891495 -0.42206162
0000e0 71 ad 63 3e 1d 18 56 3f e8 99 2c 3f 84 10 25 bf
       0.22234131 0.83630544 0.6742234 -0.64478326
0000f0 09 a1 34 bf a3 b5 77 be 2c ea e4 3d d3 20 a1 be
       -0.7055822 -0.24190383 0.11177477 -0.31470355

depthwiseConv.4.weight f4 [32]
000000 6e 50 e1 3e 95 99 ac 3e f5 e6 fe 3e 33 be d4 3e
       0.44006675 0.33710924 0.4978558 0.4155136
000010 82 ec ff 3e 0e a9 2e 3f 05 f8 51 3f 02 4d 02 3e
       0.4998513 0.68226707 0.8201907 0.12724689
000020 33 18 1a 3f 9c c3 20 3f 9c 71 b6 3e e7 07 d2 3e
       0.60193175 0.62798476 0.35633552 0.41021654
000030 8f 2e c0 3e 84 9b 3e 3f aa 29 35 3f c6 7c 24 3f
       0.3753552 0.7445605 0.707667 0.6425289
000040 f9 f4 9d 3e 2d 49 f7 3e 6f d1 8f 3f 91 1a 70 3f
       0.30850962 0.48298016 1.1235789 0.9379054
000050 1d e4 7a 3f 7b 5f c0 3e 76 f4 33 3f a9 c8 7e 3e
       0.98004323 0.37572846 0.7029489 0.24881233
000060 d0 ab f1 3e db 03 0d 3f 12 e4 fb 3e b8 7d 40 3f
       0.47201395 0.5508401 0.4919744 0.7519183
000070 87 c1 ed 3e 23 ec 50 3f 04 5d 4f 3e 44 59 4d 3e
       0.46436712 0.81610316 0.20250326 0.20053583

depthwiseConv.4.bias f4 [32]
000000 6c 67 20 bd 0e 05 c5 bb ee f3 54 bd e4 8e be bc
       -0.03916113 -0.0060125655 -0.051990442 -0.023261495
000010 9b d3 8c bd 67 8b 28 be a9 c3 7d be f3 89 0f bd
       -0.06876298 -0.16459428 -0.2478167 -0.035043668
000020 77 14 8d bd c1 d6 2a bd c0 88 9a bd 62 ce 94 bd
       -0.06888669 -0.04170871 -0.07545614 -0.07265927
000030 b6 1e 13 3d a1 3d a0 bd 3b d4 00 be af 68 48 bd
       0.03591796 -0.07824255 -0.1258096 -0.04892796
000040 10 b4 2b bd bd d1 46 bd 6b 83 91 be 87 66 a2 be
       -0.041919768 -0.048539866 -0.28420576 -0.31718847
000050 d2 4c 36 be 9a 5f a8 bd 8e 10 44 be 8b bd 93 ba
       -0.17802742 -0.082213596 -0.1914694 -0.0011271698
000060 c8 0b 51 bd 38 10 a1 bd 20 62 80 bd d1 73 b1 bd
       -0.051036626 -0.078644216 -0.06268716 -0.08664668
000070 a3 56 92 bd 73 fa 61 be 82 45 8f bd 2f 3d f8 bc
       -0.07145431 -0.22068195 -0.069956794 -0.030302612

depthwiseConv.4.running_mean f4 [32]
000000 bb b2 d4 3c c0 6f 49 bd 9a d7 62 3a 62 32 13 bc
       0.025964132 -0.04917884 0.0008653343 -0.00898418
000010 b4 a0 f3 3d 2c ee a7 3a 4a 05 2e bd 27 4a 8e be
       0.11895886 0.001281207 -0.042485513 -0.2779095
000020 80 dc df 3a 3b 22 13 bd f9 d7 a4 bd 53 1d 0e 3c
       0.0017079264 -0.035921317 -0.08049006 0.008673984
000030 3a 81 99 bd 21 f1 d9 3c 02 b9 41 bc 35 ea 86 3c
       -0.07495351 0.026604237 -0.011823894 0.0164691
000040 28 65 04 3d 8c a9 03 bd 42 e0 65 ba 53 94 23 bc
       0.032323033 -0.032144114 -0.0008769074 -0.009984094
000050 49 71 a8 bb c8 0a e9 bc 21 f1 2b bc 48 61 09 3e
       -0.005140458 -0.028447524 -0.010494501 0.13416016
000060 4f 4a 01 be b1 9c fc 3a b5 c3 c1 bc 8a d0 23 bb
       -0.12626003 0.0019272772 -0.02365289 -0.0024996125
000070 d8 03 52 be be 48 2b bc cb 7f 6a 3d 7f 71 22 3c
       -0.20509279 -0.010454355 0.05725078 0.009914755

depthwiseConv.4.running_var f4 [32]
000000 ad f0 02 3d 02 8a 1c 3d ce 03 0e 3b 93 c0 48 3e
       0.031967808 0.038217552 0.0021669748 0.19604711
000010 28 58 97 3e 63 94 14 3d 2f 20 05 3e 35 27 62 3e
       0.29559445 0.036274325 0.13000558 0.22085269
000020 2f fc 3e 3c 12 63 9c 3b a4 38 09 3e fe 89 bf 3c
       0.011656805 0.0047725523 0.13400513 0.02338123
000030 ce 9b 23 3e e1 2d e6 3d 16 e7 8b 3e 64 bf 31 3f
       0.15977404 0.112392195 0.27324742 0.69432664
000040 f7 e9 06 3f 05 1c 06 3f e8 97 3f 3b 53 fa ae 3c
       0.5270075 0.52386504 0.002923483 0.021359598
000050 dc a8 13 3e e0 ff 51 3f f4 7a b4 3e 9e a4 a3 3e
       0.14419883 0.8203106 0.35250056 0.3196153
000060 f0 55 80 3c 1d 07 22 3c 39 6a 25 3f b1 ae 95 3e
       0.015665978 0.009889391 0.6461521 0.2923484
000070 53 f0 d3 3d 11 50 6d 3d a4 de 3c 3e 15 f7 9f 3c
       0.103485726 0.057937685 0.18444306 0.019526998

separableConv.0.weight f4 [32, 32, 1, 7]
000000 5d 48 7a bd 20 62 0b be 1d ef 68 bd 23 0a 6b 3c
       -0.061104167 -0.1361165 -0.05686866 0.0143456785
000010 be 2d b0 3d 0b cd 56 3c af f1 25 3b cf 3f fc 3c
       0.08602475 0.0131104095 0.0025321057 0.030792145
000020 9d d8 51 3e 64 9d ba bb 04 46 9c bd 52 f6 aa bd
       0.20492788 -0.005695032 -0.07630542 -0.08347763
000030 86 d0 9d bc 6e 80 9c bd 08 5f 1e be 54 e0 be bc
       -0.01926447 -0.076416835 -0.15465939 -0.023300327
000040 95 80 86 bd 53 7f 1c be 09 cf b3 bd 4c 73 53 3d
       -0.06567494 -0.15282945 -0.08779723 0.051623628
000050 bc 2e 65 bd a3 76 35 bd 63 3a 41 3d cc 55 cb 3d
       -0.055952772 -0.044302594 0.047174823 0.09928474
000060 c0 69 ea bd 2d 90 91 bc 14 5f 4e 3e ab db 0e bd
       -0.114459515 -0.017768944 0.20153457 -0.03487746
000070 53 e0 e5 bb 93 f1 d0 3d 04 38 8a 3d c6 6e 80 be
       -0.007015267 0.102023266 0.067489654 -0.25084513
000080 1c fa ae bd 2a c5 e3 3d 05 2e c0 bd 39 50 32 be
       -0.08543798 0.111215904 -0.093837775 -0.17413415
000090 d5 11 bc bd e9 14 04 be 16 54 45 3d ef c5 52 3a
       -0.09183089 -0.12898602 0.048175894 0.00080403587
0000a0 8a 45 5d bd f9 e0 56 3d cc 07 ce bd 3e b0 25 be
       -0.054021396 0.052460644 -0.10060081 -0.16180512
0000b0 2a a3 d4 bd b3 c4 2b be 6c 7b 29 be 12 38 96 bd
       -0.103826836 -0.16774254 -0.16550988 -0.07334913
0000c0 c7 63 ae bd c7 2e 28 3c f9 0d 68 bd 7b 39 fc 3c
       -0.08515125 0.010265059 -0.05665395 0.030789128
0000d0 b9 85 82 3d 89 ef 1a 3d 3d 62 b7 3d 3e f9 38 3e
       0.06373162 0.037826095 0.08954284 0.18063828
0000e0 29 44 cb bb 57 a6 bf 3c e1 f6 83 3d b3 4c 88 bc
       -0.0062031937 0.023394747 0.06443573 -0.016638136
0000f0 9c fe 9f bd 65 c3 1f 3c ab 2c 4f 3c 0b d5 40 be
       -0.07812235 0.0097511755 0.012644927 -0.1883127
000100 73 32 ce 3d e7 2a d6 3d b3 bb 05 be 14 f0 04 3c
       0.10068216 0.10457402 -0.13059883 0.00811388
000110 fc 17 22 3e 2e 90 e9 bd 70 ac 67 bd 2d 39 91 bd
       0.15829462 -0.11404453 -0.056560934 -0.070909835
000120 a9 a5 a3 bd 59 26 93 bd 9c ce c7 bd b6 a9 87 3d
       -0.079905815 -0.071850486 -0.097562045 0.06624167
000130 97 f7 6c bd 13 b1 1a 3e 54 c2 d4 3b 91 18 05 bb
       -0.057853308 0.15106611 0.0064928923 -0.0020308832
000140 39 36 cc 3d ae 5d 3f 3e ce fc f2 3d 9a d5 ac 3d
       0.0997128 0.1868808 0.11864625 0.08439179
000150 15 b9 28 bc d9 db 3b 3e d8 2c fa 3d 44 c8 dc bd
       -0.010298033 0.18345584 0.122155845 -0.10780385
000160 71 34 44 3d 26 8a 7c 3e 0d 4f 8c 3d 6b 1b 11 3e
       0.047901575 0.24662074 0.06851015 0.14170615
000170 7b b3 f7 3b d6 d2 5f bd e6 f9 97 3b 47 73 d3 bd
       0.0075592375 -0.05464443 0.0046379445 -0.10324722
000180 6f 30 07 be 39 99 a8 3d e7 86 99 3d 5e b3 a6 3d
       -0.1320207 0.0823235 0.07496434 0.0813968
000190 a9 ca 9c 3d c4 64 cb 3d e6 aa c5 bc 8a 07 23 3e
       0.07655842 0.09931329 -0.024129342 0.15920845
0001a0 6e cd eb 3b f1 4f 49 bd 3b 58 08 bc b6 48 3b be
       0.00719612 -0.049148504 -0.008321817 -0.18289456
0001b0 74 dc 61 bd 61 12 a7 3d 69 1b 7c be 25 76 91 be
       -0.05514188 0.081578024 -0.24619831 -0.2841045
0001c0 b7 89 2a bd 2a 89 09 be 02 4b 2e be 95 14 3e be
       -0.04163524 -0.1343123 -0.170208 -0.18562539
0001d0 1c b2 a1 bd 7d 7a 6a be 8f 52 66 be 17 f5 09 3e
       -0.078953 -0.22898288 -0.22492431 0.134724
0001e0 68 fa 0b 3e 33 21 06 3e 05 94 d3 3d c0 83 88 3d
       0.13669741 0.13098602 0.10330967 0.06665754
0001f0 75 26 2d 3e 71 d9 0c 3e f9 f7 43 3d fa fe 06 3e
       0.16909201 0.13754822 0.047843907 0.13183203
000200 8e b1 e9 3a 0f 53 c9 bd f6 dc ce bc b6 54 58 bc
       0.0017829405 -0.09830295 -0.025251847 -0.01320379
000210 cd 02 a3 bd 10 27 56 3d 92 89 a2 bd da 3e c7 bc
       -0.079595186 0.052283347 -0.07936396 -0.024321962
000220 6f 5a 8b 3d 7f b4 5d bd 13 f4 16 be f8 3c b4 3d
       0.06804358 -0.054127213 -0.14741544 0.08800691
000230 fa 36 97 bd 22 75 94 bd 55 33 d5 bb 49 17 2f bc
       -0.07383533 -0.07248904 -0.0065063634 -0.010686704
000240 25 6c 31 bd fd d0 24 be 7b a6 8d bc b9 7f 31 3e
       -0.043316025 -0.16095348 -0.017291298 0.17333879
000250 a8 7e 4e bd 4f 09 e5 bd d6 14 d5 bc 54 03 0e bd
       -0.050413758 -0.11183416 -0.026010912 -0.034671143
000260 e3 27 8e bd 20 3a 08 be f4 f7 a9 3c d6 e8 af 3b
       -0.069412015 -0.13303423 0.020748116 0.0053683324
000270 7e 79 24 bd 61 04 bc 3c 60 ca 73 3a e5 f5 44 bd
       -0.040154926 0.022951307 0.00092998706 -0.048086066
000280 cd b1 53 3b d0 c6 38 3e d8 97 80 bd ee c7 66 3e
       0.0032302022 0.18044591 -0.06278962 0.22537205
000290 65 7b 80 3e 8d bb c7 bc 19 95 e5 3d 42 bd 83 3e
       0.25094143 -0.024381423 0.11210079 0.2573033
0002a0 ef 4e d4 3e d9 2b 64 3e 1e 40 49 3e b5 5b 79 3e
       0.41466472 0.22282352 0.19653365 0.2435139
0002b0 7a 8d 30 3e b1 ce 00 3e 8d 93 76 3e 78 3c b9 be
       0.17241469 0.12578847 0.24079724 -0.36178946
0002c0 26 75 23 be 34 2f 2a be 52 3c 0b be 71 fe 84 bd
       -0.15962657 -0.16619569 -0.13597229 -0.06493843
0002d0 ab 53 27 be 7e d6 54 be a6 f2 1c be 39 2a 38 3d
       -0.1634051 -0.20784947 -0.15326938 0.04496214
0002e0 2c 99 35 3e 69 25 99 3d 6c 23 c1 3d 33 e3 36 3e
       0.17734212 0.074778385 0.09430584 0.17860107
0002f0 cc 7d 52 3d 4c f1 c0 3d 17 76 12 bc 7b ac 94 3c
       0.0513895 0.09421024 -0.008939288 0.018148651
000300 e9 cb 9e bd 86 2f 10 be 83 e2 9c 3d cf a0 dd bd
       -0.077537365 -0.14080629 0.07660391 -0.108216874
000310 82 67 2e 3e 5f 4f 69 3c 4b a6 08 be 22 73 a1 3b
       0.17031673 0.014240115 -0.13344686 0.004927055
000320 55 35 88 3d c7 bd 1b 3d 02 16 2d be 29 44 46 3d
       0.06650797 0.038022783 -0.16902927 0.048404846
000330 8e 96 d0 3c ff 16 21 bd 79 cf 8a 3d a1 06 95 bd
       0.025462415 -0.03932857 0.067778535 -0.07276655
000340 f4 b3 50 be d1 e4 b5 bd 4e 6a 46 bd 37 79 0e 3e
       -0.20381147 -0.08881534 -0.048441224 0.13913427
000350 28 8d 0d 3d 32 ea 86 bd 4e 68 45 bc 74 ca 5a bc
       0.034558445 -0.06587638 -0.012048794 -0.013353933
000360 04 7c 23 bd 55 86 2a bc c8 50 0c 3e 01 cf a9 3d
       -0.039913192 -0.010408004 0.1370269 0.08291436
000370 12 9a 1c bd d4 2f 71 bc 73 8a 5f bc 41 f9 2a bd
       -0.03823287 -0.014720876 -0.013643849 -0.041741613
000380 5f e4 31 3e 19 30 63 bc b3 af 28 3c d5 e3 34 bd
       0.17372273 -0.013866448 0.010295796 -0.04416259
000390 f8 5a 20 3d 3d 9b 8d bd 1e f7 01 3d 66 17 54 be
       0.039149255 -0.06914375 0.03172981 -0.20712051
0003a0 a5 17 6e bd ad 36 14 3e fe c9 5f 3d a2 b6 f1 bd
       -0.058128018 0.14473982 0.054635994 -0.118024126
0003b0 27 75 bf 3d 9c 92 05 3d b7 cc 02 3e ca 9c d2 bb
       0.09348517 0.03261052 0.12773405 -0.006427382
0003c0 c4 18 32 be 30 c6 fe 3b 17 10 ee 3b ac 94 3f 3c
       -0.1739226 0.0077750906 0.0072651017 0.011693161
0003d0 ce 41 d9 3d 3e a4 f2 3d 9f 4a a9 3d 14 ea 04 bd
       0.106082544 0.11847733 0.08266186 -0.032449797
0003e0 91 6b c6 bd 52 2e 84 bd 92 b0 6f 3c 50 e8 3f 3d
       -0.096884854 -0.064541474 0.0146295 0.04685241
0003f0 d6 18 06 bc 81 a6 ed 3d 33 7f 03 3e 0a b1 13 3e
       -0.008184632 0.11604024 0.12841491 0.14423004

separableConv.0.bias f4 [32]
000000 8b bd 1e 3d 36 e4 88 3d 89 94 36 bd 55 c2 db 3d
       0.03875498 0.06684153 -0.044575248 0.10730425
000010 55 a7 9a bc 57 e9 76 3d 2d d7 a0 3c 22 62 03 3d
       -0.018878618 0.060281124 0.019633854 0.03207601
000020 82 5b 4a 3d fe 76 85 3d 5a 84 36 3d eb 0f 07 be
       0.049403675 0.065168366 0.044559814 -0.13189666
000030 db ee 87 3d a8 02 ae 3c ee a8 e3 bc 3c 80 f5 3c
       0.06637355 0.021241501 -0.027790513 0.029968373
000040 f7 04 fe 3b 6b de 60 bc a0 f0 93 3c 75 a5 b0 3c
       0.0077520567 -0.013724904 0.018059075 0.021563271
000050 4d d0 f6 3b 65 4e f9 3c 4a cc 8e 3c a7 19 71 bd
       0.0075321556 0.03043289 0.017431397 -0.058862355
000060 17 43 41 3d e5 9c db 3d 2b 01 a8 3c 16 30 19 bd
       0.047183122 0.10723285 0.02050837 -0.037399374
000070 d7 f1 71 3d 58 e4 30 bc 8f 70 51 3d b8 f9 eb 3c
       0.059068527 -0.010796629 0.051132735 0.028805599

separableConv.1.weight f4 [32]
000000 e4 67 49 3f 7a 5e b5 3f 15 29 94 3f 8d 52 a8 3f
       0.7867415 1.4169457 1.1575037 1.3150192
000010 b0 7d 90 3f e3 16 5a 3f ce ee 9c 3f 3d cd 88 3f
       1.1288357 0.8519117 1.2260377 1.0687634
000020 32 a4 c7 3f 64 b9 bf 3f b6 fc ac 3f 70 63 99 3f
       1.5596983 1.4978452 1.3514621 1.1983471
000030 fb e8 9b 3f 77 72 ea 3f f4 a4 eb 3f 2f 2f 4d 3f
       1.2180475 1.8316182 1.8409715 0.8015012
000040 58 40 fa 3f f6 1a 65 3f df 95 b7 3f ff 44 b0 3f
       1.9550886 0.89494264 1.4342612 1.3771056
000050 2c 69 dc 3f 49 3b a2 3f 14 0e 53 3f 40 f2 b3 3f
       1.7219596 1.2674342 0.82443357 1.4058304
000060 c8 3c 7e 3f 40 e9 b3 3f 32 b0 e8 3f ff b8 85 3f
       0.99311495 1.4055557 1.817877 1.0447081
000070 e7 33 d3 3f a8 b8 bc 3f c0 fa e2 3f be 22 8b 3f
       1.6500214 1.4743853 1.7732773 1.0869977

separableConv.1.bias f4 [32]
000000 96 6e 80 bd 2c 8d c2 be 84 af 78 be 06 3e be be
       -0.062710926 -0.3799833 -0.24285704 -0.37156695
000010 b0 95 0c be cb 8a 5c bd c7 c3 39 be d1 a4 3b be
       -0.13728976 -0.0538433 -0.1814109 -0.18324591
000020 58 3d 5c be 27 17 90 be b3 68 81 be 2d 4e 07 be
       -0.21507776 -0.28142664 -0.25275192 -0.13213415
000030 9d b1 38 be 5f 50 19 bf 6c 15 1c bf f1 24 9e bd
       -0.18036504 -0.5988826 -0.6097019 -0.0772189
000040 bf b8 25 bf ae 63 d6 bd 71 82 7e be d5 a7 8c be
       -0.64735025 -0.10468231 -0.24854447 -0.27471796
000050 68 c8 06 bf 25 b2 4a be 35 6f bf bd e1 12 ef be
       -0.52649546 -0.19794519 -0.09347383 -0.4669409
000060 77 e5 ae bd ac 4c 85 be ef ae 0a bf 0b 19 33 be
       -0.08539861 -0.26035058 -0.5417318 -0.17490022
000070 a8 78 fb be 9e 35 5b be 74 54 05 bf c1 58 c2 bd
       -0.4911549 -0.21407172 -0.5208199 -0.09489585

separableConv.1.running_mean f4 [32]
000000 47 db a0 3d 2c ad 5b bd c3 7f 53 be e2 92 24 3d
       0.07854324 -0.053631946 -0.20654206 0.04017914
000010 3d b0 23 bc 8a cb e5 bd ea c4 03 be 3e c6 12 3c
       -0.009990749 -0.112204626 -0.12868086 0.008958397
000020 47 75 90 3c b7 9b 15 3d 05 db e4 bd 19 c7 43 be
       0.017634047 0.036525454 -0.11174587 -0.19118918
000030 32 43 14 3d 22 94 a1 3c c4 c3 1b be 81 44 56 bc
       0.036196895 0.019723956 -0.15211397 -0.013077856
000040 5c 5a 4b 3c b6 a9 68 bd 66 ea 42 bd 24 37 34 bb
       0.01241168 -0.056802474 -0.04758682 -0.0027498687
000050 33 a4 d2 3a 1c ab be 3d 57 56 09 3d 88 05 ac 3d
       0.0016070664 0.0930998 0.033529606 0.083994925
000060 f6 fe 3f bd 25 92 eb 3d 7a 8d 86 bd 03 b8 47 be
       -0.04687401 0.11502484 -0.06569953 -0.19503789
000070 11 eb b0 3d 91 85 21 be 29 09 c1 3c 6b 83 49 be
       0.08638585 -0.15773608 0.023563938 -0.19679038

separableConv.1.running_var f4 [32]
000000 15 2d 18 3f 59 ad 05 3f 5d 0b 0c 3f 29 6b b8 3e
       0.5944379 0.5221763 0.5470484 0.36019257
000010 32 ed af 3e 6c fd 19 3f 5a 84 c3 3e 9a c3 06 3f
       0.34360653 0.60152316 0.38186914 0.52642214
000020 bf e1 05 3f e9 67 d1 3e 5f 79 00 3f 2e 9b 05 3f
       0.52297586 0.4089959 0.501852 0.5218991
000030 b2 35 11 3f b1 4b 94 3e 0f 4c fc 3e 8d 60 4a 3f
       0.5672256 0.28963998 0.49276778 0.79053575
000040 e5 6a b2 3e 9c 82 2d 3f 44 87 00 3f 9a 69 c8 3e
       0.3484718 0.6777742 0.502064 0.39143068
000050 41 53 98 3e 27 20 d8 3e 26 58 0f 3f 95 a6 d0 3e
       0.29751018 0.4221203 0.5599388 0.40752092
000060 0a 56 d8 3e 89 84 ac 3e 21 9b de 3e 01 82 f5 3e
       0.42253143 0.33694866 0.4347773 0.47950748
000070 c0 41 d4 3e d1 6d e8 3e 45 89 e2 3e 87 7c c7 3e
       0.41456413 0.45396283 0.44245353 0.38962194

classify.0.weight f4 [2, 736]
000000 cd 1d 10 bf 1b a6 96 be 1a 67 c4 be 32 f9 22 3c
       -0.5629547 -0.29423603 -0.3835991 0.009947108
000010 f5 21 02 bb 84 66 1a 3e 38 83 31 3e 24 12 d5 3d
       -0.0019856666 0.15078169 0.17335212 0.10403851
000020 e6 b4 46 3e a9 b1 4d 3d aa db 21 3e 40 9f 44 3e
       0.19404945 0.050218258 0.15806451 0.19201374
000030 12 2e 78 3e f1 65 96 3d 69 58 54 3e 3a f9 36 3e
       0.24236324 0.073436625 0.20736851 0.1786851
000040 67 2b 91 3e fc 68 f7 3d ee 7f 07 3e 5b 73 0f 3e
       0.28353426 0.12080571 0.13232395 0.14008848
000050 db 28 a2 3d b4 cb 3f be a2 8c 0b 3e 18 72 aa 3e
       0.07917949 -0.1873005 0.13627866 0.33290172
000060 43 9f ba 3e 6a 2e 18 3d 23 30 3c 3e 6e b0 8a 39
       0.36449632 0.03715364 0.18377738 0.00026452861
000070 7c 5b 30 3e b4 4d a0 bc 1d be 8a bd 52 86 51 3c
       0.17222399 -0.019568302 -0.067745425 0.012788372
000080 e9 5b 7d bd bd 92 78 3c 16 50 80 be 84 ab 49 bd
       -0.06185523 0.015171704 -0.250611 -0.049235836
000090 0e 50 ff 3d f5 0d 8e 3e f5 ae ba bd f1 95 2f be
       0.12466441 0.27745023 -0.09115402 -0.17147042
0000a0 39 95 c8 bc 3f 2a f8 bb 6a b3 c1 bd 6b 3c a5 bd
       -0.024485217 -0.0075733955 -0.09458049 -0.080681644
0000b0 54 10 a6 bd 0d 46 ea bd bf 67 8c 3e 4f fa d9 3e
       -0.08108583 -0.114391424 0.27422902 0.42573783
0000c0 13 cb 26 3e 1f 29 17 3e 7b 7b 2a 3d 90 f3 9e 3d
       0.16288404 0.1476178 0.041621666 0.077612996
0000d0 51 b9 d9 bd 63 cb 40 be 07 e5 4d 3c 4a cb c4 be
       -0.106310494 -0.18827586 0.012566811 -0.38436347
0000e0 c7 ec 1b be f4 b6 d2 bd 79 b5 0f bd 04 f8 14 bc
       -0.15227042 -0.10288802 -0.035085175 -0.009092335
0000f0 2c 4e a7 3c 36 fd 81 bd 94 58 30 bd 58 14 6f bd
       0.020423017 -0.06347124 -0.043053225 -0.05836901
000100 85 9b fd bc e5 8e 2c bd 9b a9 e6 bd 4c c1 02 3d
       -0.030957947 -0.042128462 -0.112628184 0.031922624
000110 04 c8 84 bb 77 5c d2 3e 62 a9 89 3e 66 cb 0f 3e
       -0.004052164 0.4108617 0.2688704 0.14042434
000120 18 9a 24 3d 5f f1 11 be a4 50 fa 3c f8 16 02 3e
       0.040186018 -0.14252232 0.03055603 0.12704074
000130 4c 24 69 3e 63 29 e1 be 7d 64 a0 bd 74 dc f7 3d
       0.22767752 -0.43976888 -0.078316666 0.12102595
000140 cd e3 3f be ad d8 6b 3e be a9 3f bf a6 52 11 3f
       -0.18739243 0.23031874 -0.7486838 0.56766737
000150 bb 13 03 bf 0c 53 5b 3e 79 7b 87 bb 74 32 7d 3d
       -0.5120198 0.21418399 -0.004134592 0.061815694
000160 5b 88 ef 3d ba c8 af 3d f9 e7 5b 3e 6e d1 c2 be
       0.116959296 0.085832074 0.2147521 -0.38050407
000170 4b 5e 40 3d a6 83 25 3e 71 5a 52 bd ce 07 9c 3c
       0.046964925 0.16163501 -0.051355783 0.01904669
000180 bc a1 ea 3e 09 f0 0e be e2 c2 71 3e ca 11 e5 3d
       0.4582652 -0.13958754 0.23609498 0.111850336
000190 8a b9 86 3e 24 ee 5e be d1 64 9b 3d 64 aa bd bd
       0.2631343 -0.21770531 0.075875886 -0.09261015
0001a0 fa 9c 54 3d 0e fb 73 be e3 d6 83 3e bc d5 b0 3e
       0.051907517 -0.23826239 0.25749883 0.34538066
0001b0 b7 77 ac bc 4e 0c c3 ba 7e 79 54 bd b6 8f dd 3d
       -0.021053178 -0.0014880986 -0.051873676 0.10818426
0001c0 e9 6f 86 3e 88 15 48 be 4c ae bf 3e 12 da c8 3e
       0.26257256 -0.19539464 0.37437665 0.39228874
0001d0 25 3a b8 3e 97 72 e2 3e ab 9d 2b 3e 5d 98 68 bd
       0.3598186 0.4422805 0.16759364 -0.05678593
0001e0 47 ed ba 3d 6a 48 f9 3d 79 1a 5f bb bf b1 c8 bc
       0.09127288 0.12172015 -0.0034042879 -0.024498818
0001f0 46 b5 b4 bd 6b 92 ef 3d 7c 0f 8b 3b a7 79 a6 3d
       -0.08823638 0.11697849 0.0042437892 0.08128672
000200 66 75 3b bd 87 7e 32 be c6 d5 27 3e 0f af 8e 3d
       -0.045766257 -0.17431079 0.16390142 0.069669835
000210 43 04 18 bc 6a be 82 bd ab d1 49 bd eb 15 1a 3c
       -0.00927836 -0.06383975 -0.04927222 0.00940464
000220 cb 81 a3 bd b6 64 89 bd 44 c3 98 3e 0d 72 10 3e
       -0.079837404 -0.06708662 0.29836476 0.14106007
000230 8e 29 97 3d 22 78 bd 3e 61 f4 43 be 1a f6 6a 3e
       0.07380973 0.37005717 -0.19136192 0.22945443
000240 13 d5 d1 3d 35 a2 4e bd 10 87 1d be ed 15 06 3e
       0.10245719 -0.05044766 -0.15383554 0.13094302
000250 16 c3 61 3d f7 40 67 bd 87 f5 7d 3e ea fe 6c 3e
       0.05511769 -0.05645844 0.24800692 0.23144117
000260 ad 39 9d be 12 0f c4 3c 5a 0c db 3d cf c1 91 3d
       -0.30708066 0.023932967 0.10695715 0.07117044
000270 eb e0 af bd b5 7a 47 3d 21 26 25 3e da a2 e1 3d
       -0.085878216 0.048701007 0.16127826 0.110173896
000280 c8 aa 2a be 0d 4f c8 3e 54 80 5d 3e 6f fb be bd
       -0.1666671 0.3912281 0.21630985 -0.09325301
000290 a2 44 2a 3d e7 bf 12 bd 84 73 16 be aa de 49 be
       0.04156936 -0.035827544 -0.14692503 -0.19713846
0002a0 49 b4 ee be 3b 32 38 be ef 62 02 be 0f 30 f0 be
       -0.46621922 -0.17987911 -0.12733053 -0.46911666
0002b0 a1 81 19 3e c7 4f 22 be 5d 1c 7d 3e 75 e5 9b bd
       0.14990856 -0.15850745 0.24717851 -0.07612125
0002c0 5a 32 01 bf 1f 77 d2 bd 63 33 aa 3d f5 0e 1f 3d
       -0.50467455 -0.10276627 0.083105825 0.038832624
0002d0 72 e4 00 be 1a 7f 34 be 3c 5f 35 3e 45 a3 e2 bd
       -0.12587145 -0.1762661 0.1771211 -0.110662974
0002e0 b7 da e9 3d dc 52 5e be d9 ad 3c be a4 56 26 be
       0.1141867 -0.21711296 -0.18425693 -0.16243988
0002f0 b4 2a 9f be 64 e8 27 be 68 26 db 3d ce c4 63 be
       -0.31087267 -0.16397244 0.10700685 -0.22243044
000300 ee a6 91 be dc 28 83 be 0a e0 14 be 40 57 35 be
       -0.2844767 -0.2561711 -0.14538589 -0.17709064
000310 c2 dd 95 be db a3 54 be 25 66 1c 3d 77 9d f2 3d
       -0.2927075 -0.20765631 0.03818335 0.1184644
000320 62 c5 19 bc 72 a1 49 3d 86 17 04 bd 4b b1 26 3e
       -0.009385439 0.049226232 -0.032248996 0.1627857
000330 84 e7 b9 3d 2b 5d 02 be a2 2b 7a 3d 06 55 0b be
       0.09077361 -0.12730853 0.061076768 -0.13606653
000340 d8 b4 3a 3e f6 e2 79 be 80 91 b2 3c 1f 21 4c be
       0.18233049 -0.24402985 0.021797895 -0.1993451
000350 84 9e b7 3d d6 99 da be 76 82 27 3d 1b 12 8f 3d
       0.08965781 -0.42695493 0.0408959 0.06985875
000360 76 34 7a 3d 7c 44 e1 3d b4 97 be bb a0 fc 9a 3d
       0.061085187 0.109993905 -0.0058164243 0.07567716
000370 c4 fc 00 bf 51 8d a3 3d e2 fd 9e 3d fb 49 a4 be
       -0.5038569 0.07985938 0.07763268 -0.32087693
000380 f1 0a 03 3f bc 92 73 bc 5d 04 d2 be ae 09 36 be
       0.5118857 -0.014866527 -0.41018954 -0.1777713
000390 c1 91 44 3e e6 40 f9 be a1 c5 a5 be 17 90 e0 bd
       0.19196226 -0.48682326 -0.3237734 -0.10964983
0003a0 26 a7 09 be dd b2 ab bd f5 e6 9c be 48 be 39 be
       -0.13442668 -0.08383725 -0.30644956 -0.18138993
0003b0 59 59 ec bd 44 41 14 3e c6 a3 23 be 9d 9c 80 be
       -0.11540479 0.14478022 -0.15980443 -0.25119486
0003c0 d5 35 b3 bd 71 2f 4c be c5 10 c6 3e 06 b4 69 3e
       -0.08750502 -0.19939972 0.3868467 0.2282258
0003d0 d9 84 8f 3d 88 7d 68 bd 66 70 3e be a1 ba c7 bd
       0.070077606 -0.05676034 -0.18597564 -0.097523935
0003e0 68 36 19 bd 01 14 a8 bd ae 05 c3 3d 40 8f 51 be
       -0.0374054 -0.082069404 0.09522568 -0.20464802
0003f0 f8 9f 85 bb 9d 8a a4 3d 5e 5b a4 be a1 b1 6b be
       -0.0040779077 0.08034251 -0.32100958 -0.23016979

classify.0.bias f4 [2]
000000 05 b7 1d 3d 65 19 1b bd
       0.03850462 -0.037866015
